gpt_game_of_thrones.pth (torch, 953070 bytes, 110 tensors)

token_embeddings.weight f4 [76, 64]
0	0xbf56a1a0	-0.8384037
1	0xbeb54361	-0.3540297
2	0xbdb66ba6	-0.08907251
3	0x3fd183e7	1.6368378
4	0x3f3c17a4	0.7347357
5	0x3e8f96be	0.28044695
6	0xbf2665c9	-0.6499906
7	0x39fd6a34	0.00048335048
8	0xc00c34b2	-2.1907163
9	0xbf6fc9cf	-0.9366731
10	0xbf085f55	-0.53270465
11	0x3b56d2de	0.0032779495
12	0xbfa142e5	-1.259854
13	0x3e19f8bb	0.1503629
14	0x3f7aee05	0.9801944
15	0x3f45496c	0.7706516
16	0xbf68a61c	-0.9087846
17	0xbeaa0dc2	-0.3321362
18	0x3ec00fb4	0.3751198
19	0x3f570009	0.8398443
20	0x3f3ac3aa	0.7295481
21	0xbf0b5321	-0.5442372
22	0x3e081d85	0.13292511
23	0xbfd05f49	-1.6279079
24	0x3dec3ecd	0.11535416
25	0xbd95539d	-0.072913386
26	0x3e0e0164	0.13867718
27	0x3f754b56	0.9581808
28	0x3f0921a3	0.5356695
29	0xbf6755a9	-0.9036508
30	0xbde9ca49	-0.11415536
31	0xbe85efc4	-0.2615949
32	0x3ff74bab	1.9319967
33	0xbd2c3a10	-0.04204756
34	0x3e523e86	0.20531663
35	0x3f2b2ff0	0.6687002
36	0x3f40fce6	0.7538589
37	0x3f3fd32e	0.7493161
38	0xbfa2aa29	-1.2708179
39	0xbf957a21	-1.1677896
40	0x3fab98da	1.3406022
41	0xbe209f2f	-0.15685724
42	0x3f471fdf	0.77783006
43	0xbf6d0036	-0.92578447
44	0x3cec91c9	0.02887811
45	0xbe62bff5	-0.22143538
46	0x400bfc18	2.1872616
47	0xbe6b86ce	-0.23000643
48	0x3fcfda2f	1.6238459
49	0x3f8a7e68	1.0819826
50	0xbea4e9e2	-0.32209688
51	0x3e3b5abf	0.18296336
52	0xbdb29c5c	-0.087212294
53	0xbfbbb1ca	-1.4663632
54	0xbf3b5e93	-0.73191184
55	0x3edfe606	0.4373018
56	0xbf470de1	-0.7775555
57	0xbde8f34c	-0.1137453
58	0x3f8e1149	1.1099025
59	0xbf0d82a6	-0.5527748
60	0xbfbc0715	-1.4689661
61	0xc03f81d6	-2.9922996
62	0x400dfb69	2.2184699
63	0xbddd2864	-0.107987195
64	0xc009af74	-2.1513338
65	0x3eb36af9	0.3504255
66	0x3ea02311	0.31276754
67	0xbf6d0f4d	-0.9260147
68	0x3fd00128	1.6250353
69	0xbe0c78ca	-0.13717952
70	0xbff7eacc	-1.9368529
71	0x3e2b83d2	0.16749504
72	0xbc249874	-0.010046113
73	0x3f76f01d	0.96460134
74	0x3f89965b	1.074901
75	0xbeafb508	-0.34317803
76	0xbf655734	-0.89586186
77	0xbec7b1b5	-0.39002767
78	0xbe9c0c6d	-0.3047823
79	0xbf864fd2	-1.0493109
80	0x3fa8e2d3	1.3194221
81	0xbf90bc3a	-1.1307442
82	0x3c93f978	0.018063292
83	0x3f108226	0.5644859
84	0xbea82f34	-0.32848513
85	0xbf88bc2b	-1.0682424
86	0xbf57a60d	-0.8423775
87	0x3fba4b32	1.4554198
88	0xbd8f2566	-0.06989555
89	0x3fc5e9e7	1.5462006
90	0xbf1ce0b3	-0.61280364
91	0xbdf5f76e	-0.12010084
92	0xbe6b0c1e	-0.22953841
93	0xbf6f82e9	-0.9355913
94	0xbf1381b9	-0.57619816
95	0x3c67cf49	0.014148542
96	0x3ed1a57b	0.40946564
97	0xc017d584	-2.372407
98	0x3f2ace09	0.66720635
99	0xbf269642	-0.65073025
100	0xbfa3cbc0	-1.2796555
101	0xbfa6b24a	-1.302316
102	0x3fc04b55	1.502299
103	0x3e1877f0	0.14889503
104	0xbfe102bd	-1.7578961
105	0x3eeddc4b	0.46457133
106	0x3f10c574	0.5655129
107	0xbf895db6	-1.0731723
108	0xbf725d74	-0.9467385
109	0xbf11cc89	-0.5695272
110	0xbe6ed7d0	-0.23324513
111	0x3f9c3cb1	1.2206022
112	0xbe531d54	-0.20616657
113	0xbedf602a	-0.43628055
114	0x402f09bd	2.7349694
115	0xbfddee78	-1.73384
116	0x3fcad3ee	1.5845926
117	0x3f73bd22	0.9521047
118	0x3e9352fc	0.2877425
119	0x3fef9828	1.8718309
120	0x3f0d9616	0.5530714
121	0xbebd4f72	-0.36974674
122	0x3f269aa2	0.650797
123	0xbfbee82e	-1.4914606
124	0xbfe126f9	-1.7590019
125	0xbf60ac96	-0.87763345
126	0x3fd0a6d1	1.6300908
127	0xbec6f3f9	-0.3885801
128	0x3f20b136	0.627704
129	0x3fd72eed	1.6811196
130	0x3e053430	0.13008189
131	0xbf075d85	-0.52877074
132	0x3b6a3578	0.0035737436
133	0x3ea46f3d	0.32116118
134	0x3f101e63	0.56296366
135	0xbf0db817	-0.55359024
136	0xbe6f6355	-0.23377736
137	0x3fdc37f8	1.720458
138	0xbf806a53	-1.0032448
139	0x3dc4f574	0.09617129
140	0xbeb83ba0	-0.3598299
141	0x3ff0056b	1.8751653
142	0x3ec1cc92	0.37851387
143	0x3f37aac9	0.7174497
144	0x3e03a17a	0.12854567
145	0x3fa2c6b0	1.2716885
146	0xbed971bd	-0.42469588
147	0x3eac58f1	0.33661607
148	0xbf966554	-1.1749673
149	0xc00d2e76	-2.2059608
150	0xbfded198	-1.7407713
151	0x3fa7ffe5	1.3124968
152	0x3f6ad01e	0.9172381
153	0x3ef21462	0.47281176
154	0x3f04f613	0.5193798
155	0x3dc22252	0.09479202
156	0xbfd3e30b	-1.6553663
157	0xbf40b131	-0.7527037
158	0x3f66e021	0.90185744
159	0xbfa1b72d	-1.2634026
160	0xbee74022	-0.45166117
161	0x3ee4fa6f	0.44722316
162	0xbf681617	-0.90658706
163	0xbf1a672d	-0.60313684
164	0x3ef6885e	0.48150915
165	0xbdd3d53e	-0.10343407
166	0xbf873849	-1.0564052
167	0xbf40131e	-0.7502917
168	0x3ec37eca	0.3818267
169	0xbf81b5f1	-1.0133649
170	0xbf8308ec	-1.0237098
171	0x3cf46825	0.029834816
172	0xbf2d6315	-0.6772931
173	0xbd4a15d0	-0.04933721
174	0xbf0ba320	-0.54545784
175	0xc02fdb62	-2.747765
176	0xbf3e4503	-0.74324054
177	0x3e80fcc9	0.2519286
178	0xbf748b1d	-0.9552477
179	0x3f856915	1.0422693
180	0xbf0c5a7b	-0.5482556
181	0xbf3c495a	-0.73549426
182	0x3f3546fc	0.7081144
183	0x3fa27c9f	1.2694281
184	0x3fc7e57f	1.5616912
185	0xbfdcd969	-1.7253848
186	0xbf705a1c	-0.93887496
187	0xbf101132	-0.5627624
188	0x3da7e45a	0.081978515
189	0xbea884a4	-0.32913697
190	0xbfc10bb5	-1.5081698
191	0xbe48ed2d	-0.19621725
192	0xbf4f6702	-0.8101655
193	0xbfc3183e	-1.5241773
194	0x3f3ed4c5	0.7454341
195	0x3ec14713	0.37749538
196	0xbed972b1	-0.42470315
197	0x3e8ca813	0.2747198
198	0xbf3a5545	-0.7278636
199	0xbe6230d8	-0.22088945
200	0x3f34ba34	0.70596623
201	0x3f40c9d6	0.7530798
202	0xbe4e47b8	-0.20144546
203	0x3fb1ef9c	1.3901248
204	0xbe112fb8	-0.1417836
205	0xbeca5f31	-0.3952575
206	0x3f9856d9	1.1901504
207	0xbfca33c9	-1.5797054
208	0x3bbcff42	0.005767734
209	0x3fd61c7e	1.6727445
210	0x3e025bc1	0.12730314
211	0xbe9a570b	-0.30144534
212	0xc04b1436	-3.1731086
213	0x3f7ebb1f	0.99504274
214	0xbec650c4	-0.38733494
215	0xbfef1487	-1.867814
216	0xbf860670	-1.0470715
217	0xbd9b45e5	-0.07581691
218	0x3f84ca7c	1.0374293
219	0x3fa5d3c7	1.2955254
220	0x3f80a37b	1.004989
221	0x3ebd3e72	0.36961704
222	0xbebd099f	-0.36921403
223	0x3d627a34	0.055292323
224	0xbf96f686	-1.1793983
225	0x3f86c650	1.052927
226	0xbdde8937	-0.108660154
227	0x3e8d1101	0.27552035
228	0x3d86a707	0.06574827
229	0xbf1a2119	-0.60206753
230	0x3f967a97	1.1756161
231	0x3f2f7ad6	0.6854681
232	0xbcc6c2c7	-0.024262799
233	0x3f8ed0eb	1.1157507
234	0x3f1bebae	0.60906494
235	0xbf372759	-0.71544415
236	0x3ec370c7	0.3817198
237	0x3e84480a	0.2583621
238	0x3f15a667	0.58457035
239	0xbe37ed1c	-0.17961544
240	0x3f2dede4	0.6794112
241	0xbf917651	-1.1364232
242	0xbe47cc06	-0.19511423
243	0xbf3aa85c	-0.72913146
244	0xbf5e6a55	-0.86881
245	0x3f005409	0.5012823
246	0x3f05a1d8	0.5220008
247	0xbf2c8b07	-0.6739964
248	0x3f85e681	1.0460969
249	0xbdc8a7b8	-0.09797615
250	0x3f4d1522	0.8011037
251	0x3e672068	0.22570956
252	0x3e9871c4	0.29774296
253	0x4000e951	2.0142405
254	0x3f5050ef	0.81373495
255	0xbec577a7	-0.3856785

postional_encodings.weight f4 [32, 64]
0	0xbf88d889	-1.0691081
1	0x3f513f5f	0.8173732
2	0x3c1f805b	0.009735192
3	0x3f274820	0.6534443
4	0x3d77525d	0.060381282
5	0xbf051910	-0.5199137
6	0x3f2a2159	0.66457134
7	0x3f834525	1.0255476
8	0xbf407791	-0.75182444
9	0x3e27c4a4	0.16383606
10	0x404db84b	3.2143734
11	0x3dec0cfa	0.115259126
12	0x3fde52b3	1.7368988
13	0xbfc6b4fd	-1.5523983
14	0xbfb8619e	-1.440479
15	0xbfbeb2f0	-1.4898357
16	0x3f8009b0	1.0002956
17	0xbe99a02a	-0.30005008
18	0xbf4408a0	-0.7657566
19	0x3ff8a296	1.9424617
20	0x3f4deca4	0.8043921
21	0xbfbe7ba7	-1.4881486
22	0xbeddfb22	-0.43355662
23	0x3fadc1f2	1.3574812
24	0xc03bede6	-2.9363952
25	0xbe305b5e	-0.17222354
26	0x3e5a0a6e	0.21293041
27	0xbf3ca8f8	-0.73695326
28	0xbf8aec5f	-1.0853385
29	0x3ee8cf51	0.4547067
30	0xc00be661	-2.1859362
31	0xbfcc6e44	-1.597115
32	0x3fb21d31	1.3915159
33	0x3f46b634	0.7762177
34	0x4038f00f	2.889652
35	0x3de046dd	0.10951016
36	0x3ffed983	1.9910129
37	0x3f8b91a3	1.090382
38	0xbfccd770	-1.6003246
39	0xbdfbaba5	-0.12288598
40	0xbf4073cf	-0.7517671
41	0x3ed90f3a	0.4239443
42	0xbec07897	-0.37592003
43	0x3f277cf9	0.6542507
44	0xbfdbdd25	-1.7176863
45	0x3fe99efe	1.8251646
46	0xbeb54e80	-0.35411453
47	0x3f0eb6b5	0.5574754
48	0xbf41b27f	-0.7566299
49	0xbf38ca08	-0.72183275
50	0xbe627002	-0.2211304
51	0x3f6f81cb	0.93557423
52	0xbf61d344	-0.8821299
53	0x3f714e62	0.9426023
54	0xbf8ece4e	-1.1156709
55	0xbee0bb51	-0.4389291
56	0xbe423cea	-0.1896855
57	0xbe2a12c6	-0.16608724
58	0xbf0563e7	-0.52105564
59	0xbff94298	-1.9473448
60	0x3f164b42	0.58708584
61	0x404fdcce	3.2478518
62	0x40143e59	2.3163054
63	0x3e80958d	0.25114098
64	0xbccaf536	-0.024775129
65	0xbebad79f	-0.3649263
66	0xbf668c87	-0.9005818
67	0xbf276b0f	-0.65397733
68	0xbee6eaa4	-0.45100892
69	0x3ec535bf	0.38517568
70	0xbfa9de26	-1.3270919
71	0xbf2984d4	-0.66218305
72	0x3f84fbea	1.0389378
73	0xbea8feee	-0.33006996
74	0xbf92605a	-1.1435654
75	0x3eb49d2e	0.3527617
76	0xbf46a4d8	-0.7759528
77	0x3e7d10a9	0.24713387
78	0x3f8ebb60	1.1150932
79	0x3fb51366	1.4146545
80	0x3f4def44	0.80443215
81	0xbf33d9e1	-0.7025433
82	0xbf027cad	-0.5097149
83	0x3c9f303e	0.019432183
84	0x3efff358	0.49990344
85	0xbeda8e84	-0.42686856
86	0xbf93359b	-1.1500734
87	0x3fcb25f8	1.5870962
88	0xbf147bbd	-0.5800131
89	0x3d33659f	0.043798085
90	0x3eee7091	0.46570256
91	0xbead5b48	-0.33858705
92	0x3e9380fc	0.28809345
93	0xbf0c6530	-0.548419
94	0xbef8fd26	-0.48630637
95	0xbb0dae01	-0.0021618607
96	0x3f959b99	1.168811
97	0xbdbf8911	-0.09352315
98	0x3fc1bb81	1.5135347
99	0xbfb063bc	-1.3780437
100	0xbef86680	-0.485157
101	0xbf068d06	-0.52558935
102	0xbf3e9d4e	-0.7445878
103	0xbff50672	-1.9142592
104	0xbfe83b1e	-1.8143041
105	0x3f190715	0.5977643
106	0xbfd81d99	-1.6884032
107	0x40223ee7	2.5350893
108	0x3ea5f329	0.3241208
109	0xbfb0b393	-1.3804802
110	0x3fadb22d	1.357
111	0x3e2609d2	0.16214684
112	0x3ee2ee40	0.44322395
113	0xbe0981d7	-0.13428436
114	0xbe8d9816	-0.27655095
115	0xbee6b347	-0.45058653
116	0xbf8e7b2c	-1.1131339
117	0x3e2690da	0.16266194
118	0x3da09f39	0.07842869
119	0xbff34915	-1.9006678
120	0xbed75379	-0.42055872
121	0x3f97a528	1.1847277
122	0x3eba95a8	0.36442304
123	0xbe945b81	-0.28976062
124	0x3f14702f	0.5798368
125	0xbf0b6a86	-0.54459417
126	0x3da293b6	0.0793833
127	0xbfb46cd0	-1.4095707
128	0x3f05bee6	0.5224441
129	0x3f8226c6	1.0168083
130	0x3ea822d6	0.32839078
131	0x3f5e22ed	0.8677204
132	0xbe88febc	-0.26756847
133	0x3f01831c	0.5059068
134	0x3f472ee8	0.7780595
135	0xbfeeb5fc	-1.8649287
136	0x3df4e73f	0.11958169
137	0x3e86d699	0.263356
138	0xbe6dd4bd	-0.23225684
139	0xbdf54e2d	-0.119778015
140	0x3ee708cf	0.45123908
141	0x3eb16f7d	0.3465537
142	0x3fd7c2a7	1.6856278
143	0xbf82d5e9	-1.022153
144	0xbf8472fe	-1.0347593
145	0x3e807191	0.25086644
146	0xbe7ea3f0	-0.24867225
147	0x3fabd6ee	1.3424966
148	0x3ef2bca0	0.47409534
149	0xbf672720	-0.90294075
150	0x3e702f05	0.23455437
151	0x3f444344	0.7666514
152	0xbebac6f4	-0.36479914
153	0x3e75f05b	0.2401747
154	0xbf84ef4b	-1.0385526
155	0xbf6d9b1e	-0.92814815
156	0x3f04ddd4	0.5190098
157	0x3e83d2e6	0.2574684
158	0xbf0a3dce	-0.54000556
159	0xbf307516	-0.6892866
160	0xbf78cd2b	-0.9718806
161	0xbf1c405f	-0.6103572
162	0x40273037	2.6123178
163	0xbfc2987f	-1.5202788
164	0xbea06d9b	-0.31333622
165	0x3f8316ed	1.0241371
166	0x3b5d5e44	0.003377811
167	0x3dbcd294	0.09219852
168	0xbe24e175	-0.1610163
169	0x3ef419ad	0.4767584
170	0xbf70410a	-0.9384924
171	0x3eae10fe	0.3399734
172	0xbfa0151f	-1.2506446
173	0x3c576548	0.013146706
174	0x3f22bfe4	0.6357405
175	0x3ea18be2	0.31552035
176	0xbd33cfb9	-0.04389927
177	0xbd3d8ab9	-0.046274874
178	0xbe7b8fbc	-0.24566549
179	0x3f8ebfd3	1.115229
180	0xbf6e1bba	-0.9301106
181	0xbe2be956	-0.1678823
182	0x3e90b421	0.28262427
183	0xbff3a200	-1.9033813
184	0xbe53ccf4	-0.20683652
185	0x3eff0f31	0.49816278
186	0x3fb3d5b4	1.4049592
187	0xbfaa7f5f	-1.332012
188	0x3f059162	0.5217496
189	0x3f079dd7	0.5297522
190	0xbf1fc560	-0.62410545
191	0x3f8c4b04	1.0960393
192	0xc01d6e6f	-2.4598653
193	0xbfa00505	-1.2501532
194	0x3df87aee	0.12132822
195	0xbe8ae915	-0.27130952
196	0x3e2c6733	0.16836242
197	0x3f95dfbc	1.1708903
198	0xbf10e8a6	-0.56604993
199	0x3f2bebcd	0.6715668
200	0xbd6501dc	-0.055909976
201	0xbf49099e	-0.785303
202	0xbf4a37eb	-0.78991574
203	0x3e3e173b	0.18563549
204	0xbee656ad	-0.44988003
205	0xbf45db54	-0.77287793
206	0x3fc3fec7	1.5312127
207	0xbf3f5057	-0.74731964
208	0xbf194f7f	-0.59886926
209	0xbf3fd707	-0.7493748
210	0x3d35d167	0.044389155
211	0xbf044fb8	-0.5168414
212	0x3f0b7e00	0.54489136
213	0xbe157194	-0.14594108
214	0xbea1d6f9	-0.31609324
215	0x3f3bd54d	0.73372346
216	0xc060d0bd	-3.5127404
217	0x3e80715d	0.2508649
218	0xbfa74125	-1.3066756
219	0xbe6c8027	-0.23095761
220	0xbee7a91f	-0.45246217
221	0x3f6a7a6b	0.91593045
222	0x3f0579db	0.5213906
223	0xbf47113d	-0.7776068
224	0xc011ffc7	-2.2812364
225	0x3f641ea5	0.8910926
226	0x3c2c4f6f	0.010516985
227	0xbf0b9b9d	-0.5453432
228	0xbebfe55f	-0.37479684
229	0x3ecbb05b	0.39782986
230	0xbf9874e9	-1.1910678
231	0xbf66cac8	-0.9015317
232	0x3fc8675f	1.5656546
233	0xbfb1d3b5	-1.3892733
234	0xbda62d14	-0.08114067
235	0xbf4cce5c	-0.8000238
236	0xbf41bbf2	-0.75677407
237	0x3e38d693	0.18050604
238	0x3f86d620	1.0534096
239	0xbf8e3b6b	-1.1111883
240	0x3e10c757	0.14138542
241	0xbf1c39ac	-0.610255
242	0xbd7c42a5	-0.061586995
243	0xbf834400	-1.0255127
244	0x3e8d94b7	0.27652523
245	0x3f4ba595	0.79549533
246	0x3f08dc89	0.5346151
247	0xbf8d2552	-1.1027014
248	0xbf165032	-0.5871612
249	0x3ebd085b	0.36920437
250	0x3f149055	0.58032733
251	0xc01d807a	-2.4609666
252	0xbbb272dd	-0.0054458217
253	0x3f4f1bc9	0.8090177
254	0xbec0aa96	-0.37630147
255	0x3f7f1023	0.99634

attention_blocks.0.sa.heads.0.tril f4 [32, 32]
0	0x3f800000	1.0
1	0x00000000	0.0
2	0x00000000	0.0
3	0x00000000	0.0
4	0x00000000	0.0
5	0x00000000	0.0
6	0x00000000	0.0
7	0x00000000	0.0
8	0x00000000	0.0
9	0x00000000	0.0
10	0x00000000	0.0
11	0x00000000	0.0
12	0x00000000	0.0
13	0x00000000	0.0
14	0x00000000	0.0
15	0x00000000	0.0
16	0x00000000	0.0
17	0x00000000	0.0
18	0x00000000	0.0
19	0x00000000	0.0
20	0x00000000	0.0
21	0x00000000	0.0
22	0x00000000	0.0
23	0x00000000	0.0
24	0x00000000	0.0
25	0x00000000	0.0
26	0x00000000	0.0
27	0x00000000	0.0
28	0x00000000	0.0
29	0x00000000	0.0
30	0x00000000	0.0
31	0x00000000	0.0
32	0x3f800000	1.0
33	0x3f800000	1.0
34	0x00000000	0.0
35	0x00000000	0.0
36	0x00000000	0.0
37	0x00000000	0.0
38	0x00000000	0.0
39	0x00000000	0.0
40	0x00000000	0.0
41	0x00000000	0.0
42	0x00000000	0.0
43	0x00000000	0.0
44	0x00000000	0.0
45	0x00000000	0.0
46	0x00000000	0.0
47	0x00000000	0.0
48	0x00000000	0.0
49	0x00000000	0.0
50	0x00000000	0.0
51	0x00000000	0.0
52	0x00000000	0.0
53	0x00000000	0.0
54	0x00000000	0.0
55	0x00000000	0.0
56	0x00000000	0.0
57	0x00000000	0.0
58	0x00000000	0.0
59	0x00000000	0.0
60	0x00000000	0.0
61	0x00000000	0.0
62	0x00000000	0.0
63	0x00000000	0.0
64	0x3f800000	1.0
65	0x3f800000	1.0
66	0x3f800000	1.0
67	0x00000000	0.0
68	0x00000000	0.0
69	0x00000000	0.0
70	0x00000000	0.0
71	0x00000000	0.0
72	0x00000000	0.0
73	0x00000000	0.0
74	0x00000000	0.0
75	0x00000000	0.0
76	0x00000000	0.0
77	0x00000000	0.0
78	0x00000000	0.0
79	0x00000000	0.0
80	0x00000000	0.0
81	0x00000000	0.0
82	0x00000000	0.0
83	0x00000000	0.0
84	0x00000000	0.0
85	0x00000000	0.0
86	0x00000000	0.0
87	0x00000000	0.0
88	0x00000000	0.0
89	0x00000000	0.0
90	0x00000000	0.0
91	0x00000000	0.0
92	0x00000000	0.0
93	0x00000000	0.0
94	0x00000000	0.0
95	0x00000000	0.0
96	0x3f800000	1.0
97	0x3f800000	1.0
98	0x3f800000	1.0
99	0x3f800000	1.0
100	0x00000000	0.0
101	0x00000000	0.0
102	0x00000000	0.0
103	0x00000000	0.0
104	0x00000000	0.0
105	0x00000000	0.0
106	0x00000000	0.0
107	0x00000000	0.0
108	0x00000000	0.0
109	0x00000000	0.0
110	0x00000000	0.0
111	0x00000000	0.0
112	0x00000000	0.0
113	0x00000000	0.0
114	0x00000000	0.0
115	0x00000000	0.0
116	0x00000000	0.0
117	0x00000000	0.0
118	0x00000000	0.0
119	0x00000000	0.0
120	0x00000000	0.0
121	0x00000000	0.0
122	0x00000000	0.0
123	0x00000000	0.0
124	0x00000000	0.0
125	0x00000000	0.0
126	0x00000000	0.0
127	0x00000000	0.0
128	0x3f800000	1.0
129	0x3f800000	1.0
130	0x3f800000	1.0
131	0x3f800000	1.0
132	0x3f800000	1.0
133	0x00000000	0.0
134	0x00000000	0.0
135	0x00000000	0.0
136	0x00000000	0.0
137	0x00000000	0.0
138	0x00000000	0.0
139	0x00000000	0.0
140	0x00000000	0.0
141	0x00000000	0.0
142	0x00000000	0.0
143	0x00000000	0.0
144	0x00000000	0.0
145	0x00000000	0.0
146	0x00000000	0.0
147	0x00000000	0.0
148	0x00000000	0.0
149	0x00000000	0.0
150	0x00000000	0.0
151	0x00000000	0.0
152	0x00000000	0.0
153	0x00000000	0.0
154	0x00000000	0.0
155	0x00000000	0.0
156	0x00000000	0.0
157	0x00000000	0.0
158	0x00000000	0.0
159	0x00000000	0.0
160	0x3f800000	1.0
161	0x3f800000	1.0
162	0x3f800000	1.0
163	0x3f800000	1.0
164	0x3f800000	1.0
165	0x3f800000	1.0
166	0x00000000	0.0
167	0x00000000	0.0
168	0x00000000	0.0
169	0x00000000	0.0
170	0x00000000	0.0
171	0x00000000	0.0
172	0x00000000	0.0
173	0x00000000	0.0
174	0x00000000	0.0
175	0x00000000	0.0
176	0x00000000	0.0
177	0x00000000	0.0
178	0x00000000	0.0
179	0x00000000	0.0
180	0x00000000	0.0
181	0x00000000	0.0
182	0x00000000	0.0
183	0x00000000	0.0
184	0x00000000	0.0
185	0x00000000	0.0
186	0x00000000	0.0
187	0x00000000	0.0
188	0x00000000	0.0
189	0x00000000	0.0
190	0x00000000	0.0
191	0x00000000	0.0
192	0x3f800000	1.0
193	0x3f800000	1.0
194	0x3f800000	1.0
195	0x3f800000	1.0
196	0x3f800000	1.0
197	0x3f800000	1.0
198	0x3f800000	1.0
199	0x00000000	0.0
200	0x00000000	0.0
201	0x00000000	0.0
202	0x00000000	0.0
203	0x00000000	0.0
204	0x00000000	0.0
205	0x00000000	0.0
206	0x00000000	0.0
207	0x00000000	0.0
208	0x00000000	0.0
209	0x00000000	0.0
210	0x00000000	0.0
211	0x00000000	0.0
212	0x00000000	0.0
213	0x00000000	0.0
214	0x00000000	0.0
215	0x00000000	0.0
216	0x00000000	0.0
217	0x00000000	0.0
218	0x00000000	0.0
219	0x00000000	0.0
220	0x00000000	0.0
221	0x00000000	0.0
222	0x00000000	0.0
223	0x00000000	0.0
224	0x3f800000	1.0
225	0x3f800000	1.0
226	0x3f800000	1.0
227	0x3f800000	1.0
228	0x3f800000	1.0
229	0x3f800000	1.0
230	0x3f800000	1.0
231	0x3f800000	1.0
232	0x00000000	0.0
233	0x00000000	0.0
234	0x00000000	0.0
235	0x00000000	0.0
236	0x00000000	0.0
237	0x00000000	0.0
238	0x00000000	0.0
239	0x00000000	0.0
240	0x00000000	0.0
241	0x00000000	0.0
242	0x00000000	0.0
243	0x00000000	0.0
244	0x00000000	0.0
245	0x00000000	0.0
246	0x00000000	0.0
247	0x00000000	0.0
248	0x00000000	0.0
249	0x00000000	0.0
250	0x00000000	0.0
251	0x00000000	0.0
252	0x00000000	0.0
253	0x00000000	0.0
254	0x00000000	0.0
255	0x00000000	0.0

attention_blocks.0.sa.heads.0.key.weight f4 [16, 64]
0	0x3d661c41	0.05617929
1	0x3ea20e9a	0.31651765
2	0x3e91b4bf	0.2845821
3	0x3e33ca5e	0.17557666
4	0x3dbeb213	0.09311309
5	0x3d50152b	0.050801437
6	0x3e1c5814	0.15267974
7	0xbe73e72c	-0.23818654
8	0xbdfd5f1b	-0.123716556
9	0x3caeb536	0.021326642
10	0xbbce7b97	-0.006301354
11	0x3e268067	0.16259919
12	0xbc803ac8	-0.01565303
13	0xbe5fc98c	-0.21854228
14	0x3df28289	0.11841304
15	0x3d7b0965	0.061288256
16	0xbe416c1f	-0.18888901
17	0xbe543686	-0.20723924
18	0x3d94ef47	0.07272201
19	0x3ece359a	0.4027527
20	0x3f149e06	0.58053625
21	0xbe8caf6c	-0.27477586
22	0xbd996a5d	-0.0749099
23	0x3ea7af83	0.32751092
24	0xbf12343e	-0.57110965
25	0x3e5ea20e	0.21741506
26	0x3e41742e	0.18891975
27	0xbdf65635	-0.120281614
28	0xbd27d87f	-0.04097795
29	0x3eb44385	0.35207763
30	0xbd87ba06	-0.06627278
31	0xbdca67d8	-0.09883088
32	0xbd6dde8f	-0.058073577
33	0x3d30d748	0.04317406
34	0xbdbd30f8	-0.09237856
35	0xbc2fbe1a	-0.010726476
36	0x3ddd0d6c	0.10793576
37	0x3da2c815	0.07948319
38	0xbd97f1e7	-0.07419186
39	0xbd8ef5c3	-0.06980469
40	0xbcb16fe0	-0.021659791
41	0xbe078dee	-0.13237736
42	0xbda55d86	-0.08074479
43	0xbdc5da53	-0.09660783
44	0xbebb6701	-0.36602023
45	0x3dea3350	0.11435568
46	0xb955dda2	-0.00020395828
47	0xbdab4995	-0.08363644
48	0xbe30c5c4	-0.17262942
49	0x3dd02f7c	0.10165307
50	0xbe46aa5c	-0.19400924
51	0x3e25e8da	0.16202107
52	0x3c07755a	0.008267725
53	0xbddccbd8	-0.107810676
54	0xbe1b802a	-0.1518561
55	0xbe544ebb	-0.20733158
56	0xbde68eed	-0.1125773
57	0xbe327d73	-0.17430668
58	0xbd6b9dfa	-0.057523705
59	0xbe30cab7	-0.1726483
60	0xbcc8365e	-0.024439987
61	0x3ed1c1d1	0.40968183
62	0x3d447d6a	0.047971167
63	0xbe26cb3c	-0.16288465
64	0xbe15c19b	-0.14624636
65	0x3e8beb30	0.2732787
66	0x3cd82192	0.026383195
67	0x3ed4e698	0.4158218
68	0xbaff176c	-0.0019461936
69	0xbdfbc486	-0.12293343
70	0xbd4a6cb8	-0.04942009
71	0x3dd8e259	0.105900474
72	0xbeb3d22d	-0.3512129
73	0x3d3e8890	0.046516955
74	0xbdb514d7	-0.088418655
75	0xbdcf933b	-0.10135504
76	0x3e8c6563	0.27421102
77	0xbb999a42	-0.0046875784
78	0x3cadf994	0.021237172
79	0xbd93b216	-0.072117016
80	0xbeadbe1a	-0.33934098
81	0x3d68e05a	0.056854583
82	0x3e7e9ed4	0.24865276
83	0x3eca6d4a	0.39536506
84	0x3d3c7a45	0.046015043
85	0xbe8396be	-0.25700945
86	0x3d926f20	0.07150102
87	0x3dc0f5b4	0.09421864
88	0xbe327169	-0.17426075
89	0x3e2e85b9	0.17043199
90	0xbe5e1cb3	-0.21690635
91	0xbdafb274	-0.08578959
92	0x3d8c457e	0.06849192
93	0xbd9febad	-0.078086235
94	0xbc6131df	-0.0137448
95	0xbe060cdf	-0.13090847
96	0xbe3ddaec	-0.18540543
97	0x3df26731	0.118360884
98	0xbdf72425	-0.12067441
99	0x3eab9e3c	0.3351916
100	0xbea16498	-0.3152206
101	0xbe2010dd	-0.15631433
102	0x3e8fc20b	0.2807773
103	0xbea26820	-0.31720066
104	0xbd297f24	-0.041381016
105	0x3e080e8d	0.132868
106	0x3e971d03	0.29514322
107	0x3dedf387	0.11618715
108	0xbe40f28d	-0.18842526
109	0x3e4cac78	0.19987667
110	0xbe26271a	-0.16225854
111	0xbe329a80	-0.1744175
112	0x3dce8641	0.10084201
113	0x3da26133	0.079286955
114	0xbd40c1f6	-0.047059976
115	0x3e45d505	0.19319542
116	0x3e7d57a7	0.24740468
117	0xbdfef509	-0.124490805
118	0xbc9e6453	-0.019334948
119	0x3db515bd	0.08842037
120	0xbceed2aa	-0.029153187
121	0xbe68076c	-0.22659081
122	0x3e0924ba	0.13392916
123	0x3e434fa0	0.19073343
124	0xbdeaa51d	-0.11457274
125	0xbd73fede	-0.059569232
126	0xbdc335a5	-0.09531716
127	0xbe48d355	-0.19611867
128	0xbd351252	-0.044206925
129	0x3d8507a7	0.064956
130	0x3dcd88a1	0.100358255
131	0x3dc1027b	0.09424301
132	0xbe84991a	-0.25898057
133	0x3d5a0215	0.05322464
134	0xbedcd3b2	-0.4313026
135	0xbdf9a5b0	-0.121898055
136	0x3dabe7f0	0.08393848
137	0x3e95cd62	0.29258257
138	0x3e805f4f	0.25072715
139	0xbcb8a9ad	-0.022541845
140	0xbdc6379f	-0.09678578
141	0xbdb76996	-0.08955686
142	0x3e3781ab	0.17920558
143	0xbe07316f	-0.13202451
144	0x3da4a431	0.080391295
145	0x3e905f71	0.28197816
146	0x3c88de80	0.016707659
147	0x3e796ad2	0.24357155
148	0x3dc64f16	0.09683053
149	0xbe028016	-0.12744173
150	0x3dd55ccd	0.10418091
151	0x3ec24582	0.37943655
152	0x3e07f245	0.13276012
153	0xbcea9355	-0.028634707
154	0x3dcb3468	0.09922105
155	0xbe423ea1	-0.18969204
156	0x3d2f62dd	0.042818893
157	0xbd65c6b7	-0.056097712
158	0xbeb987ce	-0.36236423
159	0xbd81141b	-0.06302663
160	0x3e384a61	0.17997123
161	0x3e2b6ef1	0.1674154
162	0x3e3d6c13	0.18498258
163	0xbe6849ed	-0.2268445
164	0xbd9e8001	-0.077392586
165	0x3ad97931	0.0016591904
166	0x3cb2253d	0.021746272
167	0x3e0179a1	0.12644054
168	0xbe31cfdd	-0.1736445
169	0x3e551219	0.20807685
170	0xbe3fc840	-0.18728733
171	0x3daeea6d	0.08540807
172	0xbeb5ea36	-0.3553025
173	0xbd85f8f6	-0.06541626
174	0x3e180950	0.14847302
175	0xbe2c59c2	-0.16831115
176	0x3d91495d	0.07094071
177	0xbe05e37a	-0.13075057
178	0xbe3d4f63	-0.18487315
179	0x3dc21a7e	0.09477709
180	0x3d3e0907	0.046395328
181	0xbe01e447	-0.12684737
182	0xbe6a03de	-0.22853038
183	0xbe0013d0	-0.12507558
184	0x3da6cc58	0.08144444
185	0x3d5a21cc	0.053254887
186	0x3e612ee1	0.21990539
187	0xbe22df7e	-0.15905568
188	0x3eb73e9e	0.3578996
189	0xbe006d85	-0.12541778
190	0xbe9b254a	-0.30301887
191	0x3de6778e	0.11253272
192	0x3e84a18c	0.259045
193	0x3e3290bc	0.17438024
194	0x3c990796	0.018680375
195	0xbe46c9bb	-0.19412892
196	0xbe86b002	-0.26306158
197	0xbe42bb12	-0.19016674
198	0xbdb1f41f	-0.086891405
199	0xbe0959ac	-0.13413113
200	0xbc19b1dc	-0.009380784
201	0x3e56162a	0.20906892
202	0x3e55e764	0.2088905
203	0x3ed87c16	0.4228217
204	0x3eab8c50	0.33505487
205	0x3e583dac	0.21117276
206	0x3e71bc32	0.23606947
207	0xbe0ff986	-0.1406003
208	0xbe4b423c	-0.19849485
209	0xbe5d16be	-0.21590707
210	0x3dc4b53d	0.09604881
211	0x3d52c941	0.051461462
212	0x3daa8007	0.083252005
213	0xbe0fe70d	-0.14052983
214	0x3e6adfe4	0.2293697
215	0x3e02134b	0.12702672
216	0xbe62d746	-0.22152433
217	0xbec20c2a	-0.37899905
218	0x3e4f3ae8	0.20237315
219	0x3e04c6ba	0.12966433
220	0xbd53ea58	-0.05173716
221	0x3d73ff1a	0.059569456
222	0xbe4f4a6a	-0.2024323
223	0x3e24600c	0.16052264
224	0xbd11f89c	-0.035637483
225	0xbe470047	-0.194337
226	0x3e76cad9	0.24100818
227	0x3e25b688	0.16182911
228	0x3b52e844	0.0032181898
229	0xbe0deead	-0.13860579
230	0xbe670606	-0.22560892
231	0x3e1d7590	0.15376878
232	0x3e91d8df	0.28485772
233	0xbe1c8365	-0.15284498
234	0xbdee1002	-0.11624147
235	0xbe37c5d8	-0.17946565
236	0xbdfb6348	-0.12274796
237	0x3e494834	0.1965645
238	0xbe18b04e	-0.14911005
239	0xbdef91e2	-0.11697747
240	0xbc9f95c2	-0.01948059
241	0x3eafff5e	0.34374517
242	0xbd466ed7	-0.04844555
243	0x3e18be0d	0.14916249
244	0x3ebd1c0e	0.36935467
245	0xbe42b548	-0.19014466
246	0xbeaf4c4e	-0.34237903
247	0xbd170138	-0.036866397
248	0x3e28b38d	0.16474743
249	0x3d9b59b5	0.0758547
250	0xbc9f2c54	-0.019430317
251	0x3e4594ac	0.19294995
252	0xbeb0e8a2	-0.34552485
253	0xbe6cec26	-0.23136958
254	0xbe5de307	-0.21668635
255	0xbdaa6a37	-0.0832104

attention_blocks.0.sa.heads.0.query.weight f4 [16, 64]
0	0x3dbc3a58	0.09190816
1	0xbe8048e0	-0.250556
2	0xbdae46e2	-0.085096136
3	0xbe57e335	-0.21082766
4	0xbed53e26	-0.41648978
5	0x3dae0570	0.08497131
6	0xbe3d7db8	-0.18504989
7	0x3f0d063d	0.55087644
8	0x3d1d082d	0.038337875
9	0x3d219b84	0.039454952
10	0xbe8fb776	-0.28069657
11	0xbdd95557	-0.106119804
12	0x3d0bb969	0.034112368
13	0x3dc120bf	0.09430074
14	0x3dd6b066	0.10482864
15	0x3e9d2ba1	0.3069735
16	0x3d41d77a	0.047324635
17	0xbd8f0ca8	-0.06984836
18	0x3bbf5174	0.0058385674
19	0xbd10721d	-0.035265077
20	0xbe2611e3	-0.1621776
21	0xbbfb7ba2	-0.0076746503
22	0xbe653d2a	-0.22386613
23	0x3e4dfaad	0.20115156
24	0xbc79b6d0	-0.01524134
25	0xbd8b1cc5	-0.06792597
26	0x3b4a4686	0.003086479
27	0x3e6b60be	0.22986123
28	0xbe7673d8	-0.24067628
29	0x3e1fba7a	0.15598479
30	0x3d6ce723	0.057837617
31	0xbba11bdb	-0.0049166507
32	0xbc0cbe81	-0.008590342
33	0x3c8fc093	0.017547881
34	0x3e963abf	0.29341695
35	0x3e8a8958	0.2705791
36	0x3de12389	0.10993106
37	0x3db9a985	0.090655364
38	0xbe8baa62	-0.2727843
39	0xbe6c8790	-0.23098588
40	0x3e161938	0.14658058
41	0x3e8e94de	0.27847952
42	0x3e24e1c7	0.16101752
43	0x3ea8879e	0.32915968
44	0xbe344102	-0.17602924
45	0xbe861e9c	-0.26195228
46	0x3d644504	0.05572988
47	0xbe9703f3	-0.294952
48	0xbe1c1c53	-0.1524518
49	0xbe1a93be	-0.15095422
50	0x3def1dcc	0.11675605
51	0xbde8d90a	-0.11369522
52	0x3d83cad2	0.06435169
53	0xbda9fe10	-0.08300412
54	0x3e0bf41b	0.13667338
55	0xbda6b46a	-0.0813988
56	0x3db0df5e	0.08636354
57	0xbca75e79	-0.02043079
58	0xbd9e354e	-0.07725011
59	0x3d9dcc41	0.07704974
60	0x3d19190e	0.03737741
61	0xbe9c4689	-0.30522564
62	0xbe866499	-0.26248625
63	0xbe7eaa57	-0.24869667
64	0xbe2c3d3b	-0.16820233
65	0xbe57997a	-0.2105464
66	0x3e17499f	0.14774178
67	0x3dde59a8	0.10856944
68	0x3e13a008	0.14416516
69	0x3e7bfb61	0.24607612
70	0x3e93c9b1	0.28864816
71	0x3e7f23a4	0.2491594
72	0x3e079973	0.1324213
73	0xbbc856ff	-0.0061138864
74	0xbe150750	-0.14553571
75	0xbd5b6a9f	-0.05356848
76	0x3b50f02c	0.0031881435
77	0x3d037e65	0.03210296
78	0x3d20f99e	0.039300554
79	0xbda6d2de	-0.081456885
80	0x3d7082ab	0.058718365
81	0xbd489f10	-0.04897982
82	0xbdc5ffe8	-0.09667951
83	0x3d9286bb	0.07154604
84	0x3ea83fd9	0.32861212
85	0xbeb6215f	-0.35572335
86	0xbf089cc5	-0.5336421
87	0x3e5ccbef	0.2156217
88	0xbcb49556	-0.022043865
89	0x3dc5b119	0.09652919
90	0x3d4729d2	0.048623867
91	0x3ed1546b	0.40884718
92	0x3deb95e4	0.11503199
93	0xbe08259a	-0.13295594
94	0x3dab308e	0.083588704
95	0xbe54975e	-0.20760867
96	0x3d06abfd	0.032878865
97	0xbd8052e1	-0.06265808
98	0xbe026534	-0.12733918
99	0x3de6f45c	0.112770766
100	0xbe472daa	-0.19451013
101	0xbd72d635	-0.059286315
102	0xbe5e8b28	-0.21732771
103	0x3cebc0fa	0.028778542
104	0xbe849f7c	-0.25902927
105	0x3dd82345	0.10553602
106	0x3d33e8f3	0.04392333
107	0x3c29c1ea	0.010361174
108	0x3c6f6559	0.0146115655
109	0xbeabe736	-0.33574837
110	0x3ca462f2	0.020066712
111	0x3c985f79	0.018600212
112	0x3d475f83	0.04867507
113	0xbeb9ab67	-0.36263582
114	0xbdf5f4f7	-0.12009614
115	0xbdc3a920	-0.095537424
116	0x3e3c4c87	0.18388568
117	0x3e571759	0.21005
118	0x3db95487	0.090493254
119	0xbd39ebcb	-0.045390885
120	0x3d3be3ba	0.045871474
121	0x3d94e40e	0.072700605
122	0x3e50934b	0.20368688
123	0xbd5ad537	-0.053425994
124	0xbcc391da	-0.023873258
125	0xbe4d5da1	-0.20055248
126	0xbe0507bf	-0.12991236
127	0xbe88cbd8	-0.2671802
128	0x3c814323	0.015779084
129	0x379faf24	1.9035833e-05
130	0xbd8d2ba7	-0.06893092
131	0xbd3a4feb	-0.045486372
132	0x3e2a5ab4	0.16636163
133	0x3daa8ffb	0.08328243
134	0x3d588969	0.05286542
135	0x3e47d905	0.1951638
136	0x3dc10b61	0.094259985
137	0xbd3ab9a3	-0.045587193
138	0xbd76883b	-0.060188513
139	0x3d47b68a	0.048758067
140	0x3cd58ac3	0.026067143
141	0x3c978db8	0.018500194
142	0x3d5909de	0.052987926
143	0x3e204c82	0.15654185
144	0x3d558359	0.052127216
145	0xbe9b46ab	-0.30327353
146	0xbe19b942	-0.15012076
147	0xbdfbb6f5	-0.12290756
148	0x3d9e2de2	0.07723595
149	0x3e9b946f	0.30386683
150	0xbd8fc2bc	-0.070195645
151	0x3d3cecdf	0.046124335
152	0xbe73a1ba	-0.23792163
153	0x3e6a103d	0.22857757
154	0x3ea623c7	0.3244917
155	0x3de14bc0	0.11000776
156	0xbeb0fefe	-0.34569544
157	0x3e1d984f	0.15390132
158	0xbcdd3c88	-0.027006403
159	0xbe88a7ba	-0.26690465
160	0xbea19e18	-0.31565928
161	0xbdb1df07	-0.08685117
162	0xbefc7d96	-0.49314564
163	0x3dc62239	0.09674496
164	0x3dd5d3b5	0.104407705
165	0x3cade568	0.021227553
166	0x3ca586b1	0.020205827
167	0x3e9ad68a	0.30241805
168	0xbda4fc22	-0.08055903
169	0xbe289d7e	-0.16466329
170	0x3e9be8a6	0.30450934
171	0xbdbe2212	-0.09283842
172	0xbdf06e27	-0.1173976
173	0x3dbd5f52	0.092466965
174	0x3e98b080	0.2982216
175	0xbd59d762	-0.05318392
176	0xbc4d10b0	-0.012516186
177	0xbe1757da	-0.14779606
178	0xbcab4549	-0.020907061
179	0xbdf09555	-0.11747233
180	0x3e920f3a	0.28527242
181	0xbdb59efe	-0.08868216
182	0xbebdcde8	-0.37071157
183	0x3eaf426b	0.3423036
184	0xbd8d1c9c	-0.068902224
185	0xbc9b83e5	-0.01898379
186	0xbeac48f2	-0.33649403
187	0xbd736d1a	-0.05943022
188	0xbe574f1f	-0.21026276
189	0x3cd77a36	0.026303392
190	0x3e0c2405	0.13685615
191	0x3d4f1963	0.05056132
192	0x3e69ed04	0.2284432
193	0xbe8960e7	-0.26831743
194	0x3e677161	0.22601844
195	0x3e1950d4	0.1497224
196	0xbed2ee83	-0.41197595
197	0xbe2af961	-0.16696693
198	0xbd35c437	-0.04437658
199	0x3eb557f9	0.3541868
200	0x3e514f7e	0.2044048
201	0xbc8cf00d	-0.017204309
202	0x3e3da3ee	0.18519565
203	0x3d673756	0.056449257
204	0xbea46cc6	-0.32114238
205	0x3e8c07a2	0.27349573
206	0xbe942009	-0.2893069
207	0xbe0212ec	-0.1270253
208	0x3d3b1049	0.045669828
209	0x3cb9ef78	0.022697195
210	0xbeb02fc0	-0.3441143
211	0xbd1a532e	-0.037676983
212	0x3e0f9f0a	0.14025512
213	0x3e095749	0.13412203
214	0x3e938235	0.28810278
215	0x3defe20f	0.11713039
216	0x3dcb6c1f	0.09932732
217	0x3db64e1e	0.089016184
218	0x3dd3c222	0.10339762
219	0x3db7d3cb	0.08975943
220	0xbcc0e4f5	-0.023546675
221	0x3d9974fe	0.074930176
222	0x3d33587f	0.04378557
223	0x3dbfd688	0.093670905
224	0x3d860b35	0.06545106
225	0x3d974c58	0.07387608
226	0xbed000d7	-0.4062564
227	0x3d885a21	0.06657816
228	0xbe436d77	-0.19084726
229	0xbc95a382	-0.018266443
230	0xbdc5c756	-0.09657161
231	0xbc3ecfd9	-0.011646234
232	0xbdfba3a3	-0.122870706
233	0xbd5c689c	-0.0538107
234	0xbd80964d	-0.062786676
235	0x3d995b45	0.074881114
236	0xbdef6751	-0.11689628
237	0x3d2edc05	0.042690296
238	0xbe349e2b	-0.17638461
239	0xbee8e96d	-0.4549059
240	0x3ef9f02b	0.48816046
241	0xbbd7bdf6	-0.0065839244
242	0xbdac562a	-0.08414872
243	0xbe6b7664	-0.22994381
244	0x3eabda89	0.33565167
245	0xbcc8448f	-0.024446754
246	0xbdbb6a88	-0.091511786
247	0x3e08034a	0.13282505
248	0x3eaf7cab	0.34274802
249	0xbd85285a	-0.06501837
250	0x3dcb8eaf	0.09939324
251	0x3db2f1d2	0.0873753
252	0x3e5381c7	0.20654975
253	0xbe11c12d	-0.14233847
254	0xbebb16e8	-0.36540914
255	0xbe3346be	-0.17507455

attention_blocks.0.sa.heads.0.value.weight f4 [16, 64]
0	0xbde05dc1	-0.10955382
1	0xbdc01552	-0.093790665
2	0xbe02fcd5	-0.1279176
3	0x3def7bee	0.116935596
4	0x3d941f28	0.07232505
5	0xbd48b743	-0.049002897
6	0xbbdb531d	-0.0066932575
7	0xbd963518	-0.073343456
8	0x3d300ff6	0.04298397
9	0xbe0bbf22	-0.1364713
10	0xbd1f8574	-0.03894563
11	0x3dcc098b	0.09962758
12	0x3c833ee8	0.016021207
13	0xbb8b5a01	-0.0042526727
14	0xbdb53d69	-0.08849604
15	0x3b427f6c	0.0029678
16	0xbcc1ae2f	-0.023642628
17	0xbc626fc7	-0.013820595
18	0x3d3ed5f0	0.046590745
19	0x3c9bafd5	0.019004742
20	0x3ce8d4be	0.028421756
21	0x3d8c6dfe	0.06856917
22	0x3d738a1d	0.059457887
23	0xbdef0dd3	-0.11672559
24	0xbde956dd	-0.11393521
25	0xbd942aa2	-0.07234694
26	0x3d1a5ebc	0.037688002
27	0xbd8a4c37	-0.06752818
28	0x3d383073	0.04496808
29	0x3db508b8	0.088395536
30	0xbe0dead9	-0.13859119
31	0xb8f0a590	-0.0001147493
32	0x3c8adb62	0.016950313
33	0xbd943dc5	-0.07238344
34	0x3c4996b4	0.012303997
35	0x3b9ae43e	0.0047269156
36	0xbe57218f	-0.21008895
37	0x3b735390	0.0037128665
38	0x3e170eca	0.14751735
39	0x3c9ab7a8	0.018886402
40	0x3d9b72de	0.075902686
41	0x3d10e1c8	0.03537157
42	0x3de822af	0.1133474
43	0x3dbb7d09	0.09154708
44	0x3cf67a3d	0.030087585
45	0x3dd32193	0.10309138
46	0x3e03e6fa	0.1288108
47	0xbb96ab12	-0.00459803
48	0xbcc53590	-0.024073392
49	0x3cc3be8c	0.02389457
50	0x3e043654	0.1291135
51	0xbd933140	-0.07187128
52	0x3dc05836	0.09391825
53	0x3c5d9ac3	0.013525668
54	0xbe2184ae	-0.1577327
55	0xbde28b85	-0.110617675
56	0x3db4c5f6	0.088268206
57	0x3dbf9b56	0.093558
58	0xbc91a033	-0.017776584
59	0x3cb0c479	0.02157806
60	0x3d8172ee	0.06320749
61	0xbcade6af	-0.021228163
62	0x3da16b94	0.07881847
63	0xbd8d8b00	-0.06911278
64	0x3c2fc8c4	0.010729019
65	0xbdb7c962	-0.089739576
66	0x3dbbb509	0.09165389
67	0x3cd1943d	0.02558338
68	0x3d862f05	0.06551937
69	0xbe0e17a7	-0.1387621
70	0xbcdc2eee	-0.026877847
71	0xbd60318f	-0.054734763
72	0x38607d48	5.352244e-05
73	0xbdce5dbe	-0.10076474
74	0x3ac460a2	0.0014982412
75	0x3d2d0ac1	0.042246584
76	0xbd2edeca	-0.042692937
77	0xbd77a8aa	-0.060463585
78	0x3d716fc5	0.058944482
79	0xbc5840e8	-0.013199069
80	0xbdb42588	-0.08796221
81	0xbd8291dd	-0.063754775
82	0xbd87b6cd	-0.06626663
83	0xbd037253	-0.03209145
84	0xbdc5336f	-0.09628951
85	0xbd86d2ac	-0.06583151
86	0xbc4f0e3f	-0.012637674
87	0xbb031dc5	-0.0020006758
88	0x3d42113c	0.047379717
89	0xbdce4b33	-0.10072937
90	0x3d6faf98	0.05851707
91	0xbdec2fcd	-0.11532555
92	0x3ddb7d00	0.10717201
93	0x3d1f4dca	0.038892545
94	0x3dec01a9	0.11523754
95	0xbb54a722	-0.0032448252
96	0x3b0df2b3	0.0021659553
97	0xbb9ded23	-0.0048195287
98	0xbdfb2a5d	-0.122639395
99	0x3d37af06	0.04484465
100	0x3c8c2bca	0.017110724
101	0x3e0eb078	0.13934505
102	0x3d976326	0.07391958
103	0xbd247cc6	-0.040158056
104	0xbd50475b	-0.0508493
105	0xbd2474fb	-0.040150624
106	0xbbff013b	-0.007782129
107	0x3d46ccc3	0.04853512
108	0x3ced8318	0.028993174
109	0x3d3ac563	0.0455984
110	0xbe310a43	-0.17289071
111	0xbd417e76	-0.047239743
112	0xbd4f83d3	-0.050662827
113	0xbd82a8fa	-0.06379886
114	0xbddafe3c	-0.106930226
115	0xbd2273f9	-0.03966138
116	0x3d8d1ee5	0.06890658
117	0x3c1f0a9f	0.009707122
118	0x3a77c91a	0.0009452269
119	0xbdbde7b2	-0.09272708
120	0x3e18d7f9	0.14926137
121	0x3d5a974e	0.05336695
122	0xbcd0d4da	-0.02549212
123	0xbd04714a	-0.032334603
124	0x3b4fe811	0.0031724016
125	0xbcb18a91	-0.021672519
126	0xba5cc44b	-0.0008421584
127	0x3c81f9d4	0.015866198
128	0xbdb23aed	-0.087026455
129	0x3c226d64	0.009913776
130	0x3d3ee24f	0.046602543
131	0x3e06e36f	0.13172697
132	0x3bd90156	0.0066224737
133	0x3dd183dd	0.10230229
134	0xbdaf884a	-0.08570917
135	0xbc86c5bb	-0.016451707
136	0xbdb0cfef	-0.0863341
137	0x3cec2586	0.028826486
138	0x3d324b20	0.043528676
139	0x3dc3f1bb	0.09567591
140	0x3cb83cdc	0.022489958
141	0xbc943be2	-0.01809496
142	0x3df5993c	0.11992118
143	0xbc730032	-0.01483159
144	0x3d4bf7b7	0.049796786
145	0xbdd7da11	-0.1053964
146	0xbc7b6fa7	-0.015346444
147	0xbd3a07ff	-0.045417782
148	0x3d031afe	0.032008164
149	0xbcf205cf	-0.029543785
150	0xbd6c223e	-0.057649843
151	0xbbacc65a	-0.005272669
152	0x3e0b0ac2	0.13578323
153	0x3d632400	0.055454254
154	0x3d379358	0.044818252
155	0x3d864154	0.06555429
156	0xbc34462e	-0.01100306
157	0xbd35f930	-0.044427097
158	0x3ad09f31	0.0015916583
159	0x3ce7571a	0.028239775
160	0xbb46bd8c	-0.003032538
161	0xbdf23569	-0.118265934
162	0x3d631f80	0.055449963
163	0x3d8afeed	0.067869045
164	0x3dab3f3b	0.0836167
165	0x3d316c03	0.0433159
166	0xbb0b370e	-0.0021242532
167	0xbc4218b1	-0.011846707
168	0x3c5addcc	0.013358545
169	0xbe014d4d	-0.12627144
170	0x3db2919c	0.08719179
171	0x3daf7d90	0.08568871
172	0xbdbf8fbf	-0.09353589
173	0xbc89fb55	-0.016843477
174	0x3d9a3810	0.07530224
175	0x3d483e3b	0.048887473
176	0x3bae75dd	0.005324109
177	0xbc3b0817	-0.011415503
178	0x3ce3486a	0.02774449
179	0x3da8f84a	0.082504824
180	0x3b9a0290	0.0047000125
181	0xbd2a88f8	-0.04163453
182	0xbbe699d3	-0.0070373802
183	0x3e269ef1	0.16271569
184	0xbdf25522	-0.11832644
185	0xbdba2313	-0.09088721
186	0xbe34b5dc	-0.17647499
187	0xbcf0240b	-0.029314062
188	0xbdd80a26	-0.10548811
189	0x3d0c4034	0.034240916
190	0xbaf794bd	-0.0018888932
191	0xbdbbf244	-0.09177068
192	0xbd8842b0	-0.06653345
193	0x3d362e63	0.04447783
194	0xbc010a85	-0.007876043
195	0xbde4ad8c	-0.11165914
196	0x3e22c004	0.1589356
197	0x3c9f5b8c	0.019452833
198	0xb8aaea58	-8.1498816e-05
199	0x3afa88f9	0.0019114307
200	0x3cb17bf6	0.021665554
201	0xbd611314	-0.054949835
202	0x3d2822c7	0.04104879
203	0x3cfe11ba	0.031014312
204	0xbd512d75	-0.05106874
205	0x3d08e739	0.033423636
206	0x3d6e0bce	0.058116727
207	0x3d9b907e	0.07595919
208	0xbdfc6987	-0.12324815
209	0x3e20efe7	0.15716515
210	0x3c31c7b8	0.010850839
211	0xbd550bc4	-0.052013174
212	0x3db47cc3	0.08812859
213	0x3d047077	0.032333817
214	0x3e414422	0.18873647
215	0xbd9c4e70	-0.07632148
216	0x3d188149	0.03723267
217	0xbd80de7d	-0.06292436
218	0x3ad93491	0.0016571452
219	0xbb96543f	-0.0045876796
220	0x3d4f9bb3	0.050685596
221	0x3b08926d	0.002083923
222	0xbdc87a5a	-0.09788962
223	0x3cee1bce	0.029065993
224	0xbd9fe91d	-0.07808135
225	0xbd9eb637	-0.077495985
226	0x3d894823	0.06703212
227	0x3d73f628	0.059560925
228	0xbc954072	-0.018219206
229	0xbd3646ba	-0.044501044
230	0x3db80b48	0.08986527
231	0x3e1c235f	0.15247868
232	0x3d933413	0.07187667
233	0xbbe2ccbd	-0.0069213794
234	0x3d0feb14	0.035136297
235	0x3e26e91b	0.1629986
236	0x3db55fd9	0.08856172
237	0x3a810e9a	0.000984627
238	0xbda9148e	-0.082558736
239	0xbccb6663	-0.024829095
240	0x3df9da1b	0.121998034
241	0x3baa897e	0.0052043786
242	0x3d5600b2	0.052246757
243	0x3cb87be0	0.022520006
244	0x3c964c58	0.01834695
245	0x3de8a510	0.11359608
246	0xbe2a10c8	-0.16607964
247	0xbc7f3d62	-0.0155786
248	0xbdfc66ac	-0.123242706
249	0x3aa10a6b	0.001228643
250	0x3c6e17dc	0.014532056
251	0xbd015cb7	-0.03158256
252	0x3e0f675e	0.14004275
253	0x3e03538a	0.12824836
254	0xbd7ca678	-0.061682194
255	0x3d1b450b	0.03790764

attention_blocks.0.sa.heads.1.tril f4 [32, 32]
0	0x3f800000	1.0
1	0x00000000	0.0
2	0x00000000	0.0
3	0x00000000	0.0
4	0x00000000	0.0
5	0x00000000	0.0
6	0x00000000	0.0
7	0x00000000	0.0
8	0x00000000	0.0
9	0x00000000	0.0
10	0x00000000	0.0
11	0x00000000	0.0
12	0x00000000	0.0
13	0x00000000	0.0
14	0x00000000	0.0
15	0x00000000	0.0
16	0x00000000	0.0
17	0x00000000	0.0
18	0x00000000	0.0
19	0x00000000	0.0
20	0x00000000	0.0
21	0x00000000	0.0
22	0x00000000	0.0
23	0x00000000	0.0
24	0x00000000	0.0
25	0x00000000	0.0
26	0x00000000	0.0
27	0x00000000	0.0
28	0x00000000	0.0
29	0x00000000	0.0
30	0x00000000	0.0
31	0x00000000	0.0
32	0x3f800000	1.0
33	0x3f800000	1.0
34	0x00000000	0.0
35	0x00000000	0.0
36	0x00000000	0.0
37	0x00000000	0.0
38	0x00000000	0.0
39	0x00000000	0.0
40	0x00000000	0.0
41	0x00000000	0.0
42	0x00000000	0.0
43	0x00000000	0.0
44	0x00000000	0.0
45	0x00000000	0.0
46	0x00000000	0.0
47	0x00000000	0.0
48	0x00000000	0.0
49	0x00000000	0.0
50	0x00000000	0.0
51	0x00000000	0.0
52	0x00000000	0.0
53	0x00000000	0.0
54	0x00000000	0.0
55	0x00000000	0.0
56	0x00000000	0.0
57	0x00000000	0.0
58	0x00000000	0.0
59	0x00000000	0.0
60	0x00000000	0.0
61	0x00000000	0.0
62	0x00000000	0.0
63	0x00000000	0.0
64	0x3f800000	1.0
65	0x3f800000	1.0
66	0x3f800000	1.0
67	0x00000000	0.0
68	0x00000000	0.0
69	0x00000000	0.0
70	0x00000000	0.0
71	0x00000000	0.0
72	0x00000000	0.0
73	0x00000000	0.0
74	0x00000000	0.0
75	0x00000000	0.0
76	0x00000000	0.0
77	0x00000000	0.0
78	0x00000000	0.0
79	0x00000000	0.0
80	0x00000000	0.0
81	0x00000000	0.0
82	0x00000000	0.0
83	0x00000000	0.0
84	0x00000000	0.0
85	0x00000000	0.0
86	0x00000000	0.0
87	0x00000000	0.0
88	0x00000000	0.0
89	0x00000000	0.0
90	0x00000000	0.0
91	0x00000000	0.0
92	0x00000000	0.0
93	0x00000000	0.0
94	0x00000000	0.0
95	0x00000000	0.0
96	0x3f800000	1.0
97	0x3f800000	1.0
98	0x3f800000	1.0
99	0x3f800000	1.0
100	0x00000000	0.0
101	0x00000000	0.0
102	0x00000000	0.0
103	0x00000000	0.0
104	0x00000000	0.0
105	0x00000000	0.0
106	0x00000000	0.0
107	0x00000000	0.0
108	0x00000000	0.0
109	0x00000000	0.0
110	0x00000000	0.0
111	0x00000000	0.0
112	0x00000000	0.0
113	0x00000000	0.0
114	0x00000000	0.0
115	0x00000000	0.0
116	0x00000000	0.0
117	0x00000000	0.0
118	0x00000000	0.0
119	0x00000000	0.0
120	0x00000000	0.0
121	0x00000000	0.0
122	0x00000000	0.0
123	0x00000000	0.0
124	0x00000000	0.0
125	0x00000000	0.0
126	0x00000000	0.0
127	0x00000000	0.0
128	0x3f800000	1.0
129	0x3f800000	1.0
130	0x3f800000	1.0
131	0x3f800000	1.0
132	0x3f800000	1.0
133	0x00000000	0.0
134	0x00000000	0.0
135	0x00000000	0.0
136	0x00000000	0.0
137	0x00000000	0.0
138	0x00000000	0.0
139	0x00000000	0.0
140	0x00000000	0.0
141	0x00000000	0.0
142	0x00000000	0.0
143	0x00000000	0.0
144	0x00000000	0.0
145	0x00000000	0.0
146	0x00000000	0.0
147	0x00000000	0.0
148	0x00000000	0.0
149	0x00000000	0.0
150	0x00000000	0.0
151	0x00000000	0.0
152	0x00000000	0.0
153	0x00000000	0.0
154	0x00000000	0.0
155	0x00000000	0.0
156	0x00000000	0.0
157	0x00000000	0.0
158	0x00000000	0.0
159	0x00000000	0.0
160	0x3f800000	1.0
161	0x3f800000	1.0
162	0x3f800000	1.0
163	0x3f800000	1.0
164	0x3f800000	1.0
165	0x3f800000	1.0
166	0x00000000	0.0
167	0x00000000	0.0
168	0x00000000	0.0
169	0x00000000	0.0
170	0x00000000	0.0
171	0x00000000	0.0
172	0x00000000	0.0
173	0x00000000	0.0
174	0x00000000	0.0
175	0x00000000	0.0
176	0x00000000	0.0
177	0x00000000	0.0
178	0x00000000	0.0
179	0x00000000	0.0
180	0x00000000	0.0
181	0x00000000	0.0
182	0x00000000	0.0
183	0x00000000	0.0
184	0x00000000	0.0
185	0x00000000	0.0
186	0x00000000	0.0
187	0x00000000	0.0
188	0x00000000	0.0
189	0x00000000	0.0
190	0x00000000	0.0
191	0x00000000	0.0
192	0x3f800000	1.0
193	0x3f800000	1.0
194	0x3f800000	1.0
195	0x3f800000	1.0
196	0x3f800000	1.0
197	0x3f800000	1.0
198	0x3f800000	1.0
199	0x00000000	0.0
200	0x00000000	0.0
201	0x00000000	0.0
202	0x00000000	0.0
203	0x00000000	0.0
204	0x00000000	0.0
205	0x00000000	0.0
206	0x00000000	0.0
207	0x00000000	0.0
208	0x00000000	0.0
209	0x00000000	0.0
210	0x00000000	0.0
211	0x00000000	0.0
212	0x00000000	0.0
213	0x00000000	0.0
214	0x00000000	0.0
215	0x00000000	0.0
216	0x00000000	0.0
217	0x00000000	0.0
218	0x00000000	0.0
219	0x00000000	0.0
220	0x00000000	0.0
221	0x00000000	0.0
222	0x00000000	0.0
223	0x00000000	0.0
224	0x3f800000	1.0
225	0x3f800000	1.0
226	0x3f800000	1.0
227	0x3f800000	1.0
228	0x3f800000	1.0
229	0x3f800000	1.0
230	0x3f800000	1.0
231	0x3f800000	1.0
232	0x00000000	0.0
233	0x00000000	0.0
234	0x00000000	0.0
235	0x00000000	0.0
236	0x00000000	0.0
237	0x00000000	0.0
238	0x00000000	0.0
239	0x00000000	0.0
240	0x00000000	0.0
241	0x00000000	0.0
242	0x00000000	0.0
243	0x00000000	0.0
244	0x00000000	0.0
245	0x00000000	0.0
246	0x00000000	0.0
247	0x00000000	0.0
248	0x00000000	0.0
249	0x00000000	0.0
250	0x00000000	0.0
251	0x00000000	0.0
252	0x00000000	0.0
253	0x00000000	0.0
254	0x00000000	0.0
255	0x00000000	0.0

attention_blocks.0.sa.heads.1.key.weight f4 [16, 64]
0	0xbd86e9dd	-0.06587575
1	0xbe8a6afe	-0.27034754
2	0x3e887345	0.26650444
3	0xbbb28802	-0.0054483423
4	0x3e13cf9d	0.14434667
5	0xbe1c12ae	-0.152415
6	0x3e8beddb	0.27329907
7	0xbd873d97	-0.06603544
8	0xbe1bb532	-0.1520584
9	0x3caca901	0.021076681
10	0xbe26725e	-0.16254565
11	0xbc0fa7c1	-0.008768023
12	0xbd81ee4d	-0.063442804
13	0x3e63b84a	0.2223827
14	0xbe5a7c59	-0.21336497
15	0xbc6b6982	-0.014368417
16	0xbdba4014	-0.09094253
17	0x3b0fec09	0.0021960756
18	0xbe69b6e9	-0.22823681
19	0xbcf89486	-0.030344259
20	0xbbe42f20	-0.0069636256
21	0xbca1813a	-0.01971494
22	0x3db89458	0.09012669
23	0xbda014f6	-0.07816498
24	0x3ca8d891	0.02061108
25	0x3cdbb157	0.02681796
26	0x3d870e9b	0.06594583
27	0x3d95339b	0.072852336
28	0xbe0c0766	-0.13674697
29	0xbcda1eb6	-0.026625972
30	0x3e3c3f20	0.18383455
31	0x3e9f82de	0.3115453
32	0xbc5153cc	-0.012776326
33	0x3c4b4a25	0.012407814
34	0xbf0c45f8	-0.54794264
35	0xbd9cdad0	-0.07658923
36	0x3e09a228	0.13440764
37	0xbde8a251	-0.113590844
38	0xbca76378	-0.020433173
39	0x3d5f1873	0.054466676
40	0xbe43f652	-0.19136932
41	0xbc367346	-0.011135882
42	0xbe58f725	-0.21188028
43	0xbe769bf9	-0.24082936
44	0x3e6cdc97	0.23131023
45	0x3e5423d6	0.20716795
46	0xbe38ae2e	-0.18035194
47	0x3e9321ad	0.2873663
48	0x3e04d1d4	0.12970668
49	0xbc873f29	-0.01650961
50	0x3dd54499	0.104134746
51	0x3db5f50e	0.08884631
52	0x3b11d7ca	0.0022253864
53	0x3d090b0a	0.033457793
54	0xbddc6923	-0.10762241
55	0x3eb111f1	0.34584
56	0x3e63a855	0.22232182
57	0xbd9464b8	-0.07245773
58	0xbdb38f96	-0.08767621
59	0x3e767875	0.24069388
60	0xbe1746ae	-0.14773056
61	0xbd803480	-0.062600136
62	0xbd782afd	-0.06058787
63	0xbd1d9c4c	-0.038479134
64	0xbdc04b64	-0.093893796
65	0xbeaa343c	-0.33242977
66	0xbc96d9b3	-0.018414354
67	0x3e06b701	0.13155748
68	0xbea23368	-0.31679845
69	0x3d9e75fe	0.07737349
70	0x3d02de52	0.031950302
71	0x3d9e258e	0.07722007
72	0xbceb7c81	-0.028745892
73	0x3cedef80	0.029044867
74	0xbe0f183c	-0.13974088
75	0x3e86b31c	0.26308525
76	0x3e0adf79	0.1356181
77	0x3ee08115	0.43848482
78	0x3dd4d1e3	0.10391595
79	0xbb11258c	-0.0022147624
80	0xbcf0029f	-0.029298125
81	0x3e1e479f	0.15457009
82	0x3c78263c	0.015145835
83	0x3df35681	0.11881734
84	0x3e2ed9bf	0.17075251
85	0xbd006faa	-0.03135649
86	0x3e609d34	0.21934968
87	0xbe1e40ab	-0.15454356
88	0xbe2f66d2	-0.17129067
89	0x3e2a90ad	0.16656752
90	0xbda47e10	-0.08031857
91	0xbde54cab	-0.11196264
92	0xbd2848c2	-0.041085012
93	0xbe0bab4b	-0.13639562
94	0x3e1ce322	0.1532102
95	0x3e90207b	0.2814978
96	0xbdadd4e2	-0.0848787
97	0xbde6fded	-0.11278901
98	0xbdb64d01	-0.08901406
99	0x3e8a6c93	0.2703596
100	0xbe4f42ef	-0.20240377
101	0x3da20df8	0.079128206
102	0x3dc379cd	0.09544716
103	0x3e8be690	0.27324343
104	0xbe208eb2	-0.15679434
105	0xbe5683a3	-0.20948653
106	0xbe5e7d83	-0.21727566
107	0x3e0deb50	0.13859296
108	0xbcfe2350	-0.031022698
109	0x3e96d87b	0.29462036
110	0xbe65d888	-0.22445881
111	0xbe10bd5a	-0.14134732
112	0xbea6a7f0	-0.3255
113	0xbd48ce0e	-0.049024634
114	0xbe3c503e	-0.18389985
115	0xbe610b99	-0.2197708
116	0x3cd42b66	0.0258996
117	0x3e13f64a	0.1444942
118	0x3dadd4b5	0.08487836
119	0xbd8c0422	-0.06836726
120	0xbe142ada	-0.14469472
121	0x3d292a7a	0.041300274
122	0x3eb8c2ee	0.3608622
123	0xbe171cad	-0.14757033
124	0x3da57546	0.08079009
125	0xbdf6cf90	-0.12051308
126	0x3e1bf95d	0.15231843
127	0x3dbee499	0.09320945
128	0x3c1dd900	0.009634256
129	0x3c880b68	0.016607001
130	0xbceb9b5b	-0.028760603
131	0x3db3f53e	0.087870106
132	0x3bc549c3	0.006020756
133	0xbdad8d8e	-0.08474265
134	0xbdd1b7f5	-0.10240165
135	0x3d1d8ddf	0.038465377
136	0x3c815f21	0.015792431
137	0x3e0fc526	0.1404005
138	0x3cb8b534	0.022547342
139	0x3e23f256	0.16010413
140	0x3e6d0537	0.2314652
141	0x3e2744e4	0.16334873
142	0x3db1f344	0.08688977
143	0x3d16e463	0.0368389
144	0x3e1b2f63	0.15154795
145	0x3d8ac6d0	0.06776202
146	0xbca28fd6	-0.019843977
147	0xbde71236	-0.1128277
148	0x3eb910dd	0.36145678
149	0xbe59af6f	-0.21258329
150	0xbe25cb68	-0.16190875
151	0x3ecc6440	0.39920235
152	0xbe94279a	-0.28936464
153	0xbc3f6bab	-0.011683385
154	0x3e8fed01	0.28110507
155	0x3e69a208	0.22815716
156	0x3c98089b	0.01855879
157	0x3d748810	0.05970007
158	0xbec1614e	-0.3776955
159	0x3cf162be	0.02946603
160	0xbd97e605	-0.074169196
161	0xbd72dc12	-0.059291907
162	0x3e8982d6	0.26857632
163	0x3e06c1a9	0.13159813
164	0xbda00140	-0.078127384
165	0xbe50dc8d	-0.20396633
166	0xbe99f045	-0.30066124
167	0xbd92fc39	-0.07177014
168	0x3df4c2df	0.11951231
169	0x3e60b342	0.21943381
170	0xbe5144cc	-0.204364
171	0xbd24166f	-0.040060457
172	0xbe18f51f	-0.14937256
173	0x3e94c990	0.2906003
174	0x3e8733bf	0.26406667
175	0xbe94de1d	-0.2907571
176	0xbd96454a	-0.073374346
177	0xbb3199da	-0.002709976
178	0x3b1e613c	0.0024166843
179	0xbdf6b1d8	-0.1204564
180	0xbe68e84f	-0.22744869
181	0x3d1e587c	0.038658604
182	0x3e18e1c3	0.14929871
183	0xbeb1aba0	-0.34701252
184	0xbe56bcab	-0.20970409
185	0x3e3d1b08	0.18467343
186	0x3dba425a	0.09094687
187	0xbeb3b3c5	-0.3509809
188	0x3e56518f	0.2092955
189	0x3dac59f0	0.08415592
190	0x3e0b939f	0.13630532
191	0xbdb45a10	-0.088062406
192	0x3d8292dd	0.06375668
193	0x3b678774	0.003532854
194	0xbe2756b3	-0.16341667
195	0x3e23316f	0.15936826
196	0x3e00858c	0.12550944
197	0x3e43766b	0.19088142
198	0xbdd578b4	-0.10423413
199	0x3c6fc87f	0.014635204
200	0xbe2dd7f4	-0.16976911
201	0x3e3e4366	0.18580398
202	0x3d7d3710	0.06182009
203	0xbd1fdde1	-0.03902996
204	0xbc4e1e4d	-0.012580466
205	0x3ca01cf2	0.019545052
206	0x3e54df69	0.20788349
207	0x3cbff9f8	0.023434624
208	0x3ca6580f	0.020305661
209	0x3dfc95a8	0.12333232
210	0x3e319d39	0.17345132
211	0xbe84ee34	-0.25962985
212	0x3e79d4eb	0.24397628
213	0x3b1151ba	0.0022173957
214	0xbd710bac	-0.05884902
215	0x3e04591d	0.12924619
216	0xbea31250	-0.3184991
217	0x3e996bcc	0.29965055
218	0x3d315e32	0.043302722
219	0xbc061e58	-0.008185945
220	0x3dcac11c	0.09900114
221	0x3d111b61	0.0354265
222	0x3d24eac8	0.040262967
223	0xbe7590c8	-0.23981011
224	0x3e118fdf	0.14215039
225	0x3e83394c	0.25629652
226	0xbd91c8b3	-0.071183585
227	0xbd1a9338	-0.037738055
228	0x3d4bce87	0.049757507
229	0xbd988823	-0.07447841
230	0x3c9994a6	0.018747639
231	0xbe2124d7	-0.1573671
232	0xbe1b03b8	-0.15138137
233	0x3e4c0187	0.19922458
234	0xbdb65f20	-0.089048624
235	0x3bee5dca	0.007274364
236	0x3ccf97fd	0.025341028
237	0x3cb9e242	0.022690896
238	0x3e807f05	0.25096908
239	0xbeadb218	-0.33924937
240	0x3e0cadc5	0.13738163
241	0xbe94df1a	-0.29076463
242	0xbcc57eff	-0.024108408
243	0xbe8436f7	-0.25823185
244	0x3c96be2a	0.018401224
245	0x3d9e2d13	0.07723441
246	0xbd8a9c7c	-0.06768128
247	0xbe2582cf	-0.16163181
248	0xbd18c56e	-0.03729766
249	0xbe18ed96	-0.14934382
250	0x3e71fe92	0.23632267
251	0xbe0a7459	-0.13520946
252	0x3ed1dc01	0.40988162
253	0xbd3cf2f0	-0.04613012
254	0x3e181219	0.14850654
255	0x3e4b9f37	0.19884954
